pruned_model/prune_0429.tflite (tflite, 304880 bytes, 14 tensors)

sequential_17/conv2d_77/BiasAdd/ReadVariableOp f4 [16]
-0.0021820492 0.019353457 -0.009948554 -0.008160351 0.008508426 -0.0061520943 0.004815641 0.026488367
0.047658138 -0.007217876 0.012415145 -0.010627552 0.021243906 0.0021256302 0.01795748 0.022649959
00000000: b600 0fbb 248b 9e3c 43ff 22bc feb2 05bc
00000010: ed66 0b3c 8297 c9bb 86cc 9d3b 22fe d83c
00000020: 2e35 433d ef83 ecbb e468 4b3c 2f1f 2ebc
00000030: b307 ae3c 284e 0b3b 911b 933c 688c b93c

sequential_17/conv2d_78/BiasAdd/ReadVariableOp f4 [32]
0.0015890953 0.0021776233 0.0037958156 -0.007957066 0.004484437 -0.0060496046 -0.0057661682 -0.0042352797
0.0030349332 0.010324187 -0.0012161041 0.005556929 0.01693307 -0.007880643 0.013995441 0.009805854
-0.0021390773 -0.0007789881 0.00446381 6.964938e-05 0.021938046 0.0015447618 0.006125702 0.0070463666
-0.0018268196 -0.017891265 -0.0028803253 0.014848546 0.00033656074 0.003688811 0.013797361 -0.0050552064
00000000: 3149 d03a 75b6 0e3b 38c3 783b 5b5e 02bc
00000010: 2ff2 923b c33b c6bb 20f2 bcbb 1ac8 8abb
00000020: bbe5 463b c726 293c af65 9fba e616 b63b
00000030: 39b7 8a3c d01d 01bc 224d 653c bca8 203c
00000040: c32f 0cbb 0235 4cba 2745 923b ba10 9238
00000050: 6bb7 b33c 9b79 ca3a 1dba c83b 35e5 e63b
00000060: e571 efba b490 92bc d7c3 3cbb 5147 733c
00000070: 6b74 b039 fbbf 713b 540e 623c 25a6 a5bb

sequential_17/conv2d_79/BiasAdd/ReadVariableOp f4 [64]
0.0005958659 -0.0026362496 0.008539747 -0.0031388663 -0.0072600776 0.004284626 -0.001823664 0.010405131
-0.0057982975 -0.010814017 -0.004724944 -0.00089406635 -0.011163972 0.004573656 -0.0016865212 0.005005711
-0.0012693687 -0.0068852184 0.0052938294 0.0019052551 0.0051849647 0.0018165554 -0.0018351693 -0.0032723611
-0.005633196 0.004332886 -0.0060602883 0.022118794 -0.0071453024 0.009541071 -0.0023854764 -0.0040111323
-0.0028989178 -0.001573554 -0.0062577706 0.016597888 0.0062734634 -0.0011152204 0.002013327 0.0028759958
-0.0018500108 -0.0031585244 0.0032651145 0.009572949 0.0014039937 -0.009278876 0.0028232532 -0.00874546
0.00439659 -0.01512371 0.0049615763 0.0027479173 0.0026414527 0.0054125283 -0.008580851 0.0038094283
0.0013886181 0.0023201304 0.00457257 -0.0012909936 -0.0026060326 0.0050769714 -0.0015941176 0.0007615587
00000000: e233 1c3a eec4 2cbb 4cea 0b3c 70b5 4dbb
00000010: f2e5 edbb 0c66 8c3b 0208 efba 487a 2a3c
00000020: a5ff bdbb 462d 31bc b4d3 9abb c75f 6aba
00000030: 18e9 36bc 9bde 953b 430e ddba f306 a43b
00000040: f260 a6ba 669d e1bb dc77 ad3b c1b9 f93a
00000050: a3e6 a93b 7c19 ee3a 108a f0ba 1c75 56bb
00000060: ac96 b8bb e2fa 8d3b 6295 c6bb 7932 b53c
00000070: 2423 eabb 2752 1c3c a755 1cbb d16f 83bb
00000080: c5fb 3dbb b63f ceba fc0d cdbb 4bf8 873c
00000090: a091 cd3b 962c 92ba 06f2 033b 347b 3c3b
000000a0: 107c f2ba 3fff 4ebb 88fb 553b dcd7 1c3c
000000b0: 3606 b83a 6d06 18bc 5406 393b 1e49 0fbc
000000c0: 4511 903b 70c9 77bc b894 a23b 6716 343b
000000d0: 391c 2d3b 945b b13b b396 0cbc 9aa7 793b
000000e0: 4b02 b63a 540d 183b 7fd5 953b 8f36 a9ba
000000f0: f9c9 2abb b95c a63b b6f1 d0ba 57a3 473a

sequential_17/conv2d_80/BiasAdd/ReadVariableOp f4 [128]
0.0055956645 -0.006093386 -0.0023585742 0.0048597795 -0.008269069 -0.0017015925 -0.004467848 0.0025174913
0.0031401624 0.0054665245 -0.005801949 0.0015650113 0.0038388628 -0.0059100133 -0.0035084526 0.003721638
-0.006014345 0.0019161378 0.004243495 -0.0053105787 0.002846562 -0.0005638165 -0.002407331 -0.010585604
-0.0044724327 0.0025573922 0.0029670633 -0.00062615203 -0.0007249418 -0.00067178556 0.0013313678 0.010103028
0.004612939 0.00532772 0.008672774 0.0022318356 0.0037647833 -0.007088785 0.0 0.0031075857
0.004753716 0.005869539 -0.01306902 -0.0041034273 0.008092158 0.00080419827 -0.0048909695 0.0041509056
0.000815242 0.0040515824 0.0046079666 0.0009850694 0.00428441 -0.009357817 0.001526305 -0.0010143248
0.0008735024 -0.00069702574 0.0011958138 0.0037615015 -0.0058857035 -0.0043822173 0.0012782476 0.001993639
-0.00487805 -0.012379477 0.0034688946 -0.0016455629 -0.002681485 -0.008296118 0.005489413 -0.00520847
0.0037872863 -0.004797505 -0.004011411 0.0037167952 0.004884067 -0.00894715 0.013459159 0.0048849485
-0.0014559082 0.0047345054 -0.00439886 0.0008570018 -0.0049199187 -0.004842121 0.00325327 0.0042762677
0.0020988628 0.004527009 0.0060781483 0.0026165347 -0.00713182 -0.00910293 -0.0058969962 0.004115132
0.001536512 -0.0066565946 0.0065429313 -0.00054163544 0.0010644823 -0.00041439553 -0.005879133 -0.0045278007
-0.0028625592 0.0047614216 -0.0029298707 0.0029001513 -0.0011354509 0.0038377927 0.007257911 0.0042423424
-0.0042723273 -0.007101972 -0.00038110264 -0.0022701921 -0.003677885 -0.0032869282 -0.00023638425 0.0025653518
0.0013539214 -0.0009534552 0.006228912 -0.0018708664 0.0023086122 0.0 -0.005890501 0.002637743
00000000: d65b b73b 07ab c7bb 4f92 1abb c93e 9f3b
00000010: fd7a 07bc f807 dfba 0767 92bb 7ffc 243b
00000020: 2fcb 4d3b 8820 b33b 471e bebb 1121 cd3a
00000030: 6e95 7b3b c9a8 c1bb 11ee 65bb b9e6 733b
00000040: fc13 c5bb ea26 fb3a 040d 8b3b 5d04 aebb
00000050: 638d 3a3b 16cd 13ba 50c4 1dbb 3e6f 2dbc
00000060: 7c8d 92bb ec99 273b 1073 423b 5a24 24ba
00000070: 050a 3eba c41a 30ba 4a81 ae3a 2c87 253c
00000080: 2328 973b 2894 ae3b 4018 0e3c fd43 123b
00000090: 95ba 763b 0a49 e8bb 0000 0000 a3a8 4b3b
000000a0: 0fc5 9b3b 4355 c03b 711f 56bc 0b76 86bb
000000b0: f894 043c d5d0 523a 6d44 a0bb 5204 883b
000000c0: f7b5 553a 23c3 843b 6dfe 963b 721d 813a
000000d0: 3c64 8c3b 8751 19bc 4c0e c83a 18f3 84ba
000000e0: c1fb 643a 9bb8 36ba dabc 9c3a 8683 763b
000000f0: dcdc c0bb b498 8fbb df8a a73a b6a7 023b
00000100: 0dd8 9fbb 4ad3 4abc 6556 633b eeaf d7ba
00000110: dabb 2fbb 71ec 07bc 89e0 b33b d0ab aabb
00000120: 1f34 783b 6434 9dbb 2872 83bb 7a95 733b
00000130: 860a a03b 1197 12bc ce83 5c3c eb11 a03b
00000140: 2cd4 beba e923 9b3b 5024 90bb 6ba8 603a
00000150: 4537 a1bb a8aa 9ebb d034 553b ef1f 8c3b
00000160: 138d 093b 4e57 943b 342b c73b 2b7a 2b3b
00000170: 0bb2 e9bb 7524 15bc 973b c1bb 3bd8 863b
00000180: ca64 c93a 901f dabb 1666 d63b 8afc 0dba
00000190: 1986 8b3a 3a43 d9b9 bea5 c0bb f25d 94bb
000001a0: c699 3bbb b305 9c3b 1303 40bb 7710 3e3b
000001b0: 69d3 94ba 7a83 7b3b c5d3 ed3b 5903 8b3b
000001c0: e1fe 8bbb a9b7 e8bb bbce c7b9 81c7 14bb
000001d0: ac08 71bb 8169 57bb eadd 77b9 761f 283b
000001e0: 1076 b13a 4cf1 79ba e71b cc3b dc37 f5ba
000001f0: 164c 173b 0000 0000 1b05 c1bb fcdd 2c3b

sequential_17/dense_51/BiasAdd/ReadVariableOp f4 [512]
0.0 -0.005892581 0.003376343 0.0067179436 0.0 0.001678863 -0.0056627803 0.0045980583
0.00902017 -0.005613422 -0.009661109 -0.011224123 -0.0059597986 -0.005894221 0.009766335 0.0103414925
0.005202718 0.0033316866 0.0 0.0068372125 0.0013529356 0.007750308 0.010673134 0.0034648862
-0.012882904 -0.0030607267 0.0010487359 0.0026005602 0.009025701 0.0048503694 0.004299727 0.0037125
0.0 0.0010344792 0.005015643 0.005166075 0.011642626 0.0016662737 0.00817226 0.0
0.0 0.0053907083 -0.00076068105 -0.007719195 0.0032591873 0.011112103 -0.010798911 -0.002279525
0.0010175176 6.9516864e-05 0.0010366475 0.0010575401 0.006405103 0.0044655325 0.0028584902 0.004845838
0.010205785 0.002555646 0.019691395 -0.0021260171 0.0068992893 -0.0047007073 0.005931759 0.011377664
0.0 0.008443234 0.00039279007 0.0 -0.0032184108 0.0057000523 -0.010410338 0.0043673497
-0.0013221683 -0.008856218 0.0031688558 0.002698279 0.015341929 -0.006277724 -0.0017462752 0.010472621
0.0041352483 0.0023368457 0.010890454 0.018158933 -0.00669369 0.0001709489 0.007891982 0.0075571686
0.0018147428 -0.00652493 0.008024278 0.0 -0.00040436914 0.005729956 0.008632948 0.016632814
-0.0036613287 0.009074073 0.00088699895 -0.004020263 -0.009275029 0.007362481 -0.009089079 -0.0051721255
0.0 -0.008788072 -0.0054287165 -0.011801369 -0.005892469 0.012115787 0.0 0.0051100347
0.0018774866 0.008586549 -0.0015036917 0.0 -0.011890318 -0.0048798136 -0.006336913 0.0
0.0 -0.009765835 -0.006889564 0.009283477 0.005947497 -0.00017823633 -0.0048677023 -0.01007871
0.0042643147 0.0018609894 0.0055916994 0.006964448 0.00839805 0.0 0.006451923 -0.009786645
-0.0058614025 0.0030838104 -0.005801144 0.003044942 0.0 0.0036548767 0.004063795 -0.0136906495
-0.0028721306 0.0 0.001688354 0.010913675 0.0035212485 0.0007228624 0.012631788 0.009469014
0.007030721 -0.012253604 -0.0014382964 0.004315542 0.0020888764 0.0 0.0 0.0
0.0028054684 -0.0015015757 0.006612293 -0.006112567 0.006110643 0.0012576483 0.0 0.005441926
-0.016979374 0.003572996 -0.005863766 0.0001844764 1.621653e-05 0.0016826809 0.012955968 0.0
0.010473084 0.0 0.0068969396 0.004978187 -0.0076704947 0.004010786 0.0 -0.0036611108
-0.0058841957 0.0 -0.0042154766 -0.0058736564 0.015663777 0.007258504 0.003142486 0.007088048
-0.004856597 0.00080101844 -0.010892469 0.0 -0.00016118604 0.0028172247 -0.004927841 -0.006506417
0.004476848 0.008166036 -0.0064432323 -0.005895223 0.0056222877 0.0015019298 -0.013871033 -0.0069841594
0.0 -0.007773561 0.0 0.004491617 0.0065723434 0.016131414 0.0063846684 -0.0048338263
0.009550116 0.0 -0.0015682541 -0.0103438655 0.0165329 0.0 -0.007294848 -0.007328362
0.00106612 -0.004878457 -0.00057140377 -0.0068327375 0.015190788 0.0045970986 0.0013700577 -0.008346229
-0.0058555733 0.0 0.0012737883 -0.0015325897 -0.0028371974 0.00090585905 0.0057311207 0.006620692
0.008468843 -0.0076412214 0.0 -0.00980239 -0.0075092767 -0.016071467 0.0035792664 0.015669417
-0.005367478 -0.0039020302 0.0025456317 -0.010237318 0.0060075717 0.0005517535 -0.013167196 0.0
00000000: 0000 0000 8d16 c1bb a345 5d3b 3222 dc3b
00000010: 0000 0000 4b0d dc3a d88e b9bb 4fab 963b
00000020: 56c9 133c ccf0 b7bb a149 1ebc 62e5 37bc
00000030: 6a4a c3bb 4f24 c1bb fa02 203c 5d6f 293c
00000040: 907b aa3b 6d58 5a3b 0000 0000 b20a e03b
00000050: fc54 b13a 4cf6 fd3b 5ede 2e3c 2513 633b
00000060: d112 53bc 7996 48bb bd75 893a 296e 2a3b
00000070: 89e0 133c d9ef 9e3b b9e4 8c3b 6a4d 733b
00000080: 0000 0000 5d97 873a 435a a43b 2e48 a93b
00000090: b6c0 3e3c de66 da3a f1e4 053c 0000 0000
000000a0: 0000 0000 8aa4 b03b 7168 47ba 4df1 fcbb
000000b0: 1798 553b 8a0f 363c eaed 30bc 1564 15bb
000000c0: 3a5e 853a 95c9 9138 1ee0 873a 289d 8a3a
000000d0: e6e1 d13b 9a53 923b 8255 3b3b d6c9 9e3b
000000e0: 2a36 273c a07c 273b d94f a13c a654 0bbb
000000f0: 6f13 e23b 6408 9abb 335f c23b 6269 3a3c
00000100: 0000 0000 7d55 0a3c 64ef cd39 0000 0000
00000110: f9eb 52bb 81c7 ba3b 1f90 2abc fc1b 8f3b
00000120: 9b4c adba ac19 11bc 94ac 4f3b 9cd5 303b
00000130: b75c 7b3c 5eb5 cdbb 46e3 e4ba 5b95 2b3c
00000140: fa80 873b c425 193b e06d 323c 0bc2 943c
00000150: be56 dbbb bf40 3339 5f4d 013c 20a2 f73b
00000160: aadc ed3a 14cf d5bb 4378 033c 0000 0000
00000170: 8201 d4b9 5bc2 bb3b 3571 0d3c 8a41 883c
00000180: e7f2 6fbb 6cab 143c 7e85 683a 69bc 83bb
00000190: 4bf6 17bc f840 f13b 5cea 14bc ef7a a9bb
000001a0: 0000 0000 d8fb 0fbc 60e3 b1bb 875a 41bc
000001b0: 9d15 c1bb 4b81 463c 0000 0000 1472 a73b
000001c0: ff15 f63a 99ae 0c3c 8517 c5ba 0000 0000
000001d0: 9ccf 42bc d8e6 9fbb e1a5 cfbb 0000 0000
000001e0: 0000 0000 e100 20bc dac1 e1bb ba19 183c
000001f0: 39e3 c23b f3e4 3ab9 3f81 9fbb 2c21 25bc
00000200: aabb 8b3b 71ec f33a 933a b73b 0636 e43b
00000210: fa97 093c 0000 0000 a76a d33b 2a58 20bc
00000220: 0211 c0bb c119 4a3b 8617 bebb a68d 473b
00000230: 0000 0000 a886 6f3b 9529 853b bf4e 60bc
00000240: 5b3a 3cbb 0000 0000 c24b dd3a 45cf 323c
00000250: bfc4 663b 797e 3d3a 8ff5 4e3c ec23 1b3c
00000260: f661 e63b 57c3 48bc 3885 bcba 6469 8d3b
00000270: 88e5 083b 0000 0000 0000 0000 0000 0000
00000280: f3db 373b 85d0 c4ba efab d83b ee4b c8bb
00000290: ca3b c83b add7 a43a 0000 0000 2f52 b23b
000002a0: 5418 8bbc ed28 6a3b d624 c0bb 0270 4139
000002b0: bc08 8837 678d dc3a 4545 543c 0000 0000
000002c0: 4c97 2b3c 0000 0000 b9ff e13b 0f20 a33b
000002d0: c658 fbbb e96c 833b 0000 0000 3fef 6fbb
000002e0: 36d0 c0bb 0000 0000 fb21 8abb cd77 c0bb
000002f0: 5251 803c bfd8 ed3b 2bf2 4d3b db42 e83b
00000300: 1724 9fbb 70fb 513a 5476 32bc 0000 0000
00000310: 0c04 29b9 30a1 383b ba79 a1bb c833 d5bb
00000320: 86b2 923b d6ca 053c c021 d3bb b72c c1bb
00000330: 2b3b b83b 67dc c43a 5443 63bc 60db e4bb
00000340: 0000 0000 5bb9 febb 0000 0000 6a2e 933b
00000350: d05c d73b 0726 843c 7b36 d13b 1365 9ebb
00000360: 1778 1c3c 0000 0000 e08d cdba 5179 29bc
00000370: 0170 873c 0000 0000 9f09 efbb c222 f0bb
00000380: 0dbd 8b3a 77db 9fbb 42ca 15ba 28e5 dfbb
00000390: c8e2 783c 42a3 963b 8293 b33a 9fbe 08bc
000003a0: 1ce0 bfbb 0000 0000 3ef5 a63a 2de1 c8ba
000003b0: 46f0 39bb 2c77 6d3a 20cc bb3b 64f2 d83b
000003c0: e7c0 0a3c 3663 fabb 0000 0000 349a 20bc
000003d0: 6110 f6bb 4fa8 83bc 2092 6a3b 265d 803c
000003e0: abe1 afbb 34b9 7fbb 9dd4 263b 6dba 27bc
000003f0: 2adb c43b 8da3 103a 39bb 57bc 0000 0000

sequential_17/dense_52/BiasAdd/ReadVariableOp f4 [256]
-0.0049932357 0.0011112363 0.004264949 -0.00078109425 0.0036225286 0.0 0.006941839 0.004168088
-0.005895062 -0.0047158976 0.007502788 0.0051605226 0.0 0.00069851574 0.003745423 0.0053080856
0.00544971 0.0049457923 0.0046557304 0.0046425923 0.0044272854 0.0062852716 0.0026556759 0.006857982
-0.0058971434 0.0 0.0025214667 0.0022367465 0.0 0.007795179 0.009239065 0.0
-0.00822759 -0.005190841 0.0075036306 -0.0046815183 0.0 0.0061630327 0.0048756283 0.0
-0.004116768 0.007029547 0.0 0.00396011 -0.0058948733 0.003657627 0.0064626173 -0.0034419564
-0.0016477044 -0.006730305 0.0036265294 0.011409837 0.0064470326 0.0 -0.004102049 0.007549913
0.00903185 -0.0064506573 0.0010111729 0.0 0.0058513395 0.005885785 -0.004939991 0.005931313
0.010743328 0.009532404 0.0 -0.0058968286 0.0071472367 -0.0062247296 -0.0052975626 -0.006254584
0.005102634 -0.008279732 -0.0068036853 0.0019459478 -0.0047431733 0.0034281632 0.0013148191 -0.0047154375
0.0029079523 0.007929866 0.0027305465 -0.0067136637 0.0 0.0 0.006125753 -0.008323904
-0.0077959374 0.0028290127 0.0063613355 0.0 0.003055035 0.0054146573 0.009539867 0.00290899
-0.0058941715 0.0048208223 0.0 -0.005884069 0.011798713 0.0021018903 -0.0058926307 -0.0041995803
-0.006817177 0.0005140886 -0.0050748964 -0.009205378 0.00907561 -0.005434028 0.011793071 0.007991783
0.012223758 -0.0065958537 -0.0074369507 -0.0011778668 -0.005183565 -0.005894926 -0.010718117 0.0074135526
0.007887851 0.0 0.0049879807 0.006504277 -0.005988031 0.009819979 -0.007515612 0.006938975
-0.002792388 0.0037353183 0.00860763 0.0037550994 -0.0075690723 0.008968737 -0.0058974754 0.0071638534
-0.004900349 0.006331063 0.0008795003 -0.0037023828 0.0039652404 0.0072007817 0.0019002368 -0.005897023
0.01521832 -0.004884862 0.0051768883 0.0054744803 0.00619676 0.007994625 0.0050714244 -0.004565704
0.0068907263 0.0 -0.007180404 0.0037388727 -0.005138585 0.0 0.006643654 0.0065219323
0.005467165 0.0052163904 0.0 0.004858214 0.0055470727 0.0051718084 0.008140506 -0.0054332805
0.0 0.007390996 0.0054502008 0.0095096845 0.0 0.0034951614 0.0 0.005025275
-9.3257295e-05 0.00148371 -0.006313706 -0.0026513208 0.006192323 -0.0043439264 0.010383702 -0.0043744114
-0.0025816541 0.0 -0.0055442317 0.005134802 0.0067729997 0.008847385 0.0072645266 -0.0048752567
0.006855085 0.009855403 0.0033033504 0.0058989855 0.0 -0.0070219585 -0.0058718724 0.0038262692
-0.005516063 -0.005427297 0.0069527444 0.005789167 -0.0024843647 -0.0035807963 0.001728283 -0.0044282335
-0.008478016 -0.002014051 -0.0049986374 -0.003861232 0.0048203305 0.009506414 -0.008065412 0.0006951739
0.008163037 0.006218314 0.0 0.003021914 -0.0054258923 -0.0072181737 0.0076150843 -0.005104642
-0.006630511 0.0 0.0041389083 0.0038332352 -0.004429067 0.004023211 0.0 3.6468184e-05
-0.008647721 0.0 -0.006453103 0.007071312 0.007998264 0.0033564104 0.0051705204 0.009581193
0.0064800023 0.006339788 0.0071654394 0.010330165 -0.007642515 0.0034733291 0.0042798347 0.006539181
0.005717432 -0.008259226 0.0056336103 0.00487567 0.0080841165 0.0032469102 0.0 0.0058966368
00000000: 4c9e a3bb e7a6 913a fcc0 8b3b 59c2 4cba
00000010: f267 6d3b 0000 0000 5e78 e33b 7594 883b
00000020: 5d2b c1bb d187 9abb f3d9 f53b 9a19 a93b
00000030: 0000 0000 991c 373a c575 753b 73ef ad3b
00000040: 7b93 b23b 5010 a23b 198f 983b e320 983b
00000050: c312 913b aef4 cd3b d90a 2e3b ecb8 e03b
00000060: d33c c1bb 0000 0000 313f 253b 6196 123b
00000070: 0000 0000 b36e ff3b 735f 173c 0000 0000
00000080: 03cd 06bc ee17 aabb 04e1 f53b 6c67 99bb
00000090: 0000 0000 44f3 c93b bcc3 9f3b 0000 0000
000000a0: f4e5 86bb 1d58 e63b 0000 0000 cfc3 813b
000000b0: c829 c1bb ccb4 6f3b 5dc4 d33b 7292 61bb
000000c0: c9f7 d7ba e489 dcbb 11ab 6d3b 53f0 3a3c
000000d0: a141 d33b 0000 0000 7b6a 86bb 4365 f73b
000000e0: 53fa 133c 0960 d3bb 5589 843a 0000 0000
000000f0: 98bc bf3b 8bdd c03b a6df a1bb 765b c23b
00000100: c904 303c cd2d 1c3c 0000 0000 2f3a c1bb
00000110: 5e33 ea3b d1f8 cbbb 2d97 adbb 41f3 ccbb
00000120: ff33 a73b b7a7 07bc 73f1 debb 2c0f ff3a
00000130: 9f6c 9bbb 09ab 603b 0256 ac3a f583 9abb
00000140: 5893 3e3b 45ec 013c f8f2 323b 4bfe dbbb
00000150: 0000 0000 0000 0000 8aba c83b fc60 08bc
00000160: 1075 ffbb f566 393b c072 d03b 0000 0000
00000170: fb36 483b 706d b13b 1a4d 1c3c c1a4 3e3b
00000180: e523 c1bb fdf7 9d3b 0000 0000 26cf c0bb
00000190: 644f 413c debf 093b f816 c1bb a29c 89bb
000001a0: a062 dfbb e7c3 063a 514b a6bb 27d2 16bc
000001b0: deb1 143c ee0f b2bb ba37 413c f8ef 023c
000001c0: 2846 483c 0822 d8bb aab1 f3bb a762 9aba
000001d0: e5da a9bb 392a c1bb 0a9b 2fbc 63ed f23b
000001e0: 0c3c 013c 0000 0000 3772 a33b d421 d53b
000001f0: 3f37 c4bb fae3 203c 8645 f6bb 5760 e33b
00000200: 7f00 37bb 3ecc 743b 0407 0d3c 1d18 763b
00000210: fb05 f8bb 9cf1 123c 9c3f c1bb c2be ea3b
00000220: 1b93 a0bb ce74 cf3b 448e 663a ada3 72bb
00000230: d9ee 813b 89f4 eb3b 5e11 f93a d03b c1bb
00000240: 4356 793c 3111 a0bb e3a2 a93b 4563 b33b
00000250: 310e cb3b e3fb 023c 312e a63b e79b 95bb
00000260: 9acb e13b 0000 0000 9849 ebbb e007 753b
00000270: 9361 a8bb 0000 0000 02b3 d93b efb5 d53b
00000280: e725 b33b 41ee aa3b 0000 0000 a731 9f3b
00000290: 38c4 b53b 4678 a93b c25f 053c a909 b2bb
000002a0: 0000 0000 2b30 f23b 9997 b23b 82ce 1b3c
000002b0: 0000 0000 140f 653b 0000 0000 10ab a43b
000002c0: 2193 c3b8 0c79 c23a 34e3 cebb c8c1 2dbb
000002d0: f8e8 ca3b 7f57 8ebb 6720 2a3c 3957 8fbb
000002e0: f830 29bb 0000 0000 63ac b5bb d741 a83b
000002f0: 0af0 dd3b 9ff4 103c 440b ee3b 9ec0 9fbb
00000300: 9fa0 e03b 8e78 213c 067d 583b 474c c13b
00000310: 0000 0000 7518 e6bb d668 c0bb 25c2 7a3b
00000320: 17c0 b4bb 78d7 b1bb d9d3 e33b 0db3 bd3b
00000330: b9d0 22bb cbab 6abb 8e87 e23a b71a 91bb
00000340: 60e7 0abc 2bfe 03bb 9ccb a3bb b90c 7dbb
00000350: ddf3 9d3b cac0 1b3c ca24 04bc 553c 363a
00000360: 42be 053c 00c3 cb3b 0000 0000 4e0b 463b
00000370: afcb b1bb 6e86 ecbb f587 f93b d744 a7bb
00000380: c244 d9bb 0000 0000 ae9f 873b 0437 7b3b
00000390: b521 91bb 24d5 833b 0000 0000 6af5 1838
000003a0: 2caf 0dbc 0000 0000 8d74 d3bb 77b6 e73b
000003b0: 270b 033c 39f7 5b3b 786d a93b 70fa 1c3c
000003c0: 3356 d43b ffbd cf3b 10cc ea3b da3f 293c
000003d0: 106e fabb cba0 633b db3d 8c3b a046 d63b
000003e0: 4c59 bb3b b451 07bc 269a b83b 16c4 9f3b
000003f0: 3e73 043c 1dca 543b 0000 0000 9338 c13b

sequential_17/dense_53/BiasAdd/ReadVariableOp f4 [2]
-0.0036921042 0.003692101
00000000: 3bf7 71bb 2df7 713b

sequential_17/dense_51/MatMul i1 [512, 128] scale=0.001271665 zero_point=0
0.06866991 -0.07757156 -0.09155988 -0.09664654 -0.054681595 0.0 0.049594935 0.0
0.059768256 0.049594935 0.0 0.0 0.0 -0.057224926 0.0 0.0
0.085201554 0.0 -0.087744884 0.062311582 0.06739824 0.0 0.087744884 -0.09410321
0.09664654 0.08901655 0.0 -0.05595326 0.0 0.0 0.0 0.0
0.0 0.0 0.06866991 -0.06866991 0.06612658 0.0 0.061039917 0.0
-0.090288214 0.0 -0.07121324 0.0 0.09664654 0.0 0.07375657 0.0
0.0 -0.05595326 -0.062311582 -0.0508666 -0.07757156 0.0 0.0 0.0
0.0 0.0 0.0 0.08901655 0.0 -0.095374875 -0.082658224 0.0
0.0 0.06739824 0.08138656 0.0 -0.049594935 0.0 0.0 0.0
0.0 0.0 0.0 0.0 0.0 0.0 -0.054681595 0.0
0.07884323 0.0 0.0 0.08647322 0.0 0.0 0.0 0.0
0.0724849 0.0762999 0.0 0.0 0.0 0.0 0.08392989 0.0
0.0 -0.090288214 0.0 0.0 0.0 -0.09410321 0.09155988 -0.04832327
-0.06358325 0.07757156 0.0 0.0 0.0 0.07502823 -0.07375657 -0.085201554
0.052138265 -0.0508666 -0.054681595 0.0 0.0 0.0 0.09410321 -0.059768256
0.054681595 0.0 0.0 0.05849659 -0.06739824 0.0 0.092831545 0.062311582
-0.082658224 0.08011489 0.0508666 0.0 0.057224926 0.054681595 -0.049594935 0.0
-0.0762999 0.082658224 0.0762999 0.08138656 -0.05595326 0.0 0.052138265 -0.05849659
-0.09410321 0.085201554 -0.05340993 0.0 0.090288214 -0.08011489 -0.06739824 0.0
0.0 0.0 0.0724849 0.0 0.090288214 0.0 -0.07375657 -0.07121324
-0.095374875 -0.061039917 0.0 -0.057224926 -0.087744884 0.0 0.0762999 -0.090288214
0.0 0.0 0.059768256 -0.0762999 -0.06866991 -0.092831545 0.05595326 -0.09155988
-0.08901655 -0.05849659 0.090288214 0.0 0.0 -0.054681595 0.0 0.0
0.0 0.0 -0.061039917 0.052138265 -0.06485491 -0.09918987 -0.07757156 0.0
0.057224926 0.0 0.0 0.0 -0.06866991 0.0 0.0 -0.06739824
0.0 0.0 0.0 0.0 0.0 0.0 0.07121324 0.05340993
-0.08901655 -0.100461535 0.0 -0.08647322 -0.049594935 0.0 -0.09410321 0.0
0.057224926 0.059768256 0.057224926 0.057224926 0.0 -0.052138265 0.0 0.0
0.0 -0.07375657 -0.08392989 -0.07502823 0.07121324 0.0 0.0508666 -0.0508666
0.0 0.0 0.0 0.07884323 0.0 0.09155988 0.0 0.0
-0.06358325 -0.100461535 0.0 -0.06612658 0.0 0.0 -0.09155988 0.08392989
0.0 0.0 -0.05340993 -0.07884323 -0.08901655 0.049594935 0.0508666 0.0
00000000: 36c3 b8b4 d500 2700 2f27 0000 00d3 0000
00000010: 4300 bb31 3500 45b6 4c46 00d4 0000 0000
00000020: 0000 36ca 3400 3000 b900 c800 4c00 3a00
00000030: 00d4 cfd8 c300 0000 0000 0046 00b5 bf00
00000040: 0035 4000 d900 0000 0000 0000 0000 d500
00000050: 3e00 0044 0000 0000 393c 0000 0000 4200
00000060: 00b9 0000 00b6 48da ce3d 0000 003b c6bd
00000070: 29d8 d500 0000 4ad1 2b00 002e cb00 4931
00000080: bf3f 2800 2d2b d900 c441 3c40 d400 29d2
00000090: b643 d600 47c1 cb00 0000 3900 4700 c6c8
000000a0: b5d0 00d3 bb00 3cb9 0000 2fc4 cab7 2cb8
000000b0: bad2 4700 00d5 0000 0000 d029 cdb2 c300
000000c0: 2d00 0000 ca00 00cb 0000 0000 0000 382a
000000d0: bab1 00bc d900 b600 2d2f 2d2d 00d7 0000
000000e0: 00c6 bec5 3800 28d8 0000 003e 0048 0000
000000f0: ceb1 00cc 0000 b842 0000 d6c2 ba27 2800

sequential_17/dense_52/MatMul i1 [256, 512] scale=0.0011106676 zero_point=0
0.0 0.0 -0.08663207 0.0 0.0788574 0.0 0.0 0.0
-0.073304065 0.062197387 0.0 0.0 0.0 -0.077746734 0.05109071 0.0
0.052201375 0.0 -0.079968065 -0.08774274 0.0 0.0 0.062197387 0.07441473
0.05997605 0.07441473 -0.048869375 0.058865383 0.0 0.0 -0.06330805 -0.052201375
0.0 0.0 0.0 -0.05553338 -0.047758706 0.0 -0.0788574 0.0
-0.048869375 -0.08774274 0.07219339 0.0 -0.044426702 0.0 -0.044426702 0.08330007
0.0 0.07441473 0.052201375 -0.0788574 -0.084410734 0.0 -0.047758706 0.06997206
-0.05664405 -0.08330007 -0.06775072 -0.08663207 0.0 0.0 0.0 -0.044426702
0.0 -0.07219339 0.0 0.06552939 -0.08663207 0.0 -0.071082726 0.07441473
-0.08107874 -0.054422714 0.0 0.0 -0.088853404 0.07219339 0.0 -0.04553737
0.0 0.0 0.0 0.0 0.05997605 0.0 0.0 -0.06552939
0.0 0.0788574 0.048869375 0.08330007 0.0 0.0 -0.075525396 0.0
0.0 -0.04553737 0.0 0.0 0.0 0.0 0.0 0.0
0.0821894 0.0 0.0 0.0 0.0788574 -0.04998004 0.0 0.0
0.0 0.0 0.058865383 -0.075525396 0.0 0.0 0.0 -0.0821894
0.0 0.048869375 0.0 0.0 0.0 0.0 0.058865383 0.0
0.06664006 0.0 0.079968065 0.06886139 -0.06997206 0.0 0.0 -0.04998004
0.08774274 0.0 0.057754714 -0.07663606 0.0 0.04553737 0.06664006 0.0
0.04998004 0.05109071 0.0 0.0 0.0 -0.0821894 0.0 0.0
0.073304065 0.07219339 0.0 -0.06775072 0.0 0.0 -0.0788574 0.0
-0.07441473 -0.09218541 -0.05997605 0.0 0.0 -0.047758706 0.0 -0.05664405
0.05997605 0.06886139 0.0 -0.04998004 0.047758706 0.0 -0.071082726 -0.062197387
0.0 0.0 0.05664405 -0.053312045 -0.075525396 -0.05553338 0.0 -0.077746734
0.0 0.05553338 0.0 0.06664006 0.0 -0.05553338 0.0 0.0
0.0 0.06441872 0.0 0.0 0.0 0.06997206 0.0 0.0
0.0 -0.07441473 0.0 0.0 -0.06886139 0.05109071 0.0 0.044426702
0.0 0.0 0.0 0.0 0.0 0.0 0.0 0.0
-0.047758706 0.0 0.0 -0.08330007 0.047758706 0.0 0.06330805 0.0
0.0 0.079968065 0.0 0.084410734 0.0821894 -0.073304065 -0.05109071 0.06664006
0.08107874 -0.044426702 0.0 0.05664405 0.05109071 -0.07219339 0.062197387 0.0
0.0 0.04998004 0.0 -0.0788574 0.084410734 -0.052201375 0.06775072 0.08330007
0.0 0.0 -0.054422714 -0.06330805 0.04664804 -0.06886139 0.0 0.062197387
00000000: 0000 b200 4700 0000 be38 0000 00ba 2e00
00000010: 2f00 b8b1 0000 3843 3643 d435 0000 c7d1
00000020: 0000 00ce d500 b900 d4b1 4100 d800 d84b
00000030: 0043 2fb9 b400 d53f cdb5 c3b2 0000 00d8
00000040: 00bf 003b b200 c043 b7cf 0000 b041 00d7
00000050: 0000 0000 3600 00c5 0047 2c4b 0000 bc00
00000060: 00d7 0000 0000 0000 4a00 0000 47d3 0000
00000070: 0000 35bc 0000 00b6 002c 0000 0000 3500
00000080: 3c00 483e c100 00d3 4f00 34bb 0029 3c00
00000090: 2d2e 0000 00b6 0000 4241 00c3 0000 b900
000000a0: bdad ca00 00d5 00cd 363e 00d3 2b00 c0c8
000000b0: 0000 33d0 bcce 00ba 0032 003c 00ce 0000
000000c0: 003a 0000 003f 0000 00bd 0000 c22e 0028
000000d0: 0000 0000 0000 0000 d500 00b5 2b00 3900
000000e0: 0048 004c 4abe d23c 49d8 0033 2ebf 3800
000000f0: 002d 00b9 4cd1 3d4b 0000 cfc7 2ac2 0038

sequential_17/dense_53/MatMul f4 [2, 256]
0.0 -0.079531096 0.12032349 0.0 0.0 -0.12464081 0.0 0.0
-0.0 0.0 -0.0 -0.0 -0.0 -0.1591205 0.1589944 -0.0
0.0 0.09536947 -0.16189843 0.14496383 0.0 -0.0 -0.17536126 0.0
-0.115099475 0.13439798 -0.0 0.13966289 0.0 -0.0 -0.16529895 0.0898269
0.08011086 0.0 0.14263964 -0.0 -0.07606484 0.0 0.16169265 0.14635691
-0.0 -0.0 -0.0 0.0 -0.0 0.0 0.11751429 0.0
0.0 0.09442827 -0.0 -0.17774285 -0.0 -0.0 -0.0 -0.0
0.0 0.0 0.0 -0.09083897 0.0 -0.0 -0.14685237 -0.16121897
-0.0 0.0 0.0 -0.15067291 -0.16063386 0.0 0.0 -0.0
0.11563273 0.11560794 -0.12500885 0.14441665 -0.11672829 0.16783908 -0.0 0.10229913
0.0 0.0 0.0 -0.12125048 0.0 0.13222852 -0.0 0.0
-0.10571599 0.105418794 -0.0 -0.085069746 0.0 -0.12871219 -0.16343291 -0.0
-0.0 -0.0 0.10146332 -0.0 -0.17442411 0.0 0.0 0.07544164
-0.088040166 0.118532576 0.0 0.08477394 -0.12967578 -0.13285935 -0.17013666 -0.0
0.0 -0.0 -0.0 0.08723478 -0.0 -0.13115732 0.12594888 -0.096658856
-0.0 0.082144275 -0.0 0.121791735 -0.0 0.0 0.13040921 -0.09959493
0.13912272 -0.0 -0.090072826 -0.14372213 -0.0 -0.0 -0.0811395 -0.09738661
-0.10528445 -0.16477224 0.0 0.0 -0.0 0.062471125 -0.0 -0.08729637
0.09135103 -0.121016435 0.13431568 0.13901162 -0.0 0.113066114 -0.15674435 0.10388162
-0.0 -0.105892435 0.0 0.11094488 0.13072196 -0.0 0.17243965 -0.10578397
0.0 -0.0 -0.12346726 0.0 -0.14395022 -0.14973119 0.10805889 -0.0995451
0.12901351 -0.1334911 0.1491572 -0.0 -0.0 0.10692074 -0.12289727 0.0
0.0 0.0 0.13501395 -0.0 0.11050688 0.0 -0.13349749 -0.07634885
-0.10021584 0.0 -0.07610929 -0.12903515 0.0 -0.0 0.0 -0.13191615
-0.1288726 -0.11971014 -0.1035999 -0.0 -0.09960744 0.0 -0.0 0.10054268
0.08733754 -0.14228049 -0.1464902 -0.1589081 0.0 -0.0 0.0 -0.0
0.07549585 0.14281635 0.0 -0.12991042 0.06311422 0.1117591 0.08271418 0.0
-0.11898613 0.14202924 0.0 0.16232711 0.0 0.09661783 -0.0 -0.0
0.0 -0.0 -0.14109673 0.09444752 0.0 -0.17078814 -0.0 0.116255924
-0.0 -0.0 -0.0 -0.0 0.113918416 0.09976833 -0.0 -0.0
-0.0 -0.13040975 -0.0 -0.17287524 -0.07588548 -0.0 0.1127876 0.11425696
-0.13668747 0.0 0.0945142 0.08965927 -0.0 0.0 -0.13701135 0.0
00000000: 0000 0000 33e1 a2bd 296c f63d 0000 0000
00000010: 0000 0000 ae43 ffbd 0000 0000 0000 0000
00000020: 0000 0080 0000 0000 0000 0080 0000 0080
00000030: 0000 0080 7cf0 22be 6ecf 223e 0000 0080
00000040: 0000 0000 1251 c33d b4c8 25be 6671 143e
00000050: 0000 0000 0000 0080 e791 33be 0000 0000
00000060: 46b9 ebbd a09f 093e 0000 0080 ca03 0f3e
00000070: 0000 0000 0000 0080 2144 29be 2af7 b73d
00000080: 2a11 a43d 0000 0000 2010 123e 0000 0080
00000090: e2c7 9bbd 0000 0000 c292 253e 96de 153e
000000a0: 0000 0080 0000 0080 0000 0080 0000 0000
000000b0: 0000 0080 0000 0000 55ab f03d 0000 0000
000000c0: 0000 0000 9c63 c13d 0000 0080 3902 36be
000000d0: 0000 0080 0000 0080 0000 0080 0000 0080
000000e0: 0000 0000 0000 0000 0000 0000 c809 babd
000000f0: 0000 0000 0000 0080 7860 16be 9616 25be
00000100: 0000 0080 0000 0000 0000 0000 004a 1abe
00000110: 347d 24be 0000 0000 0000 0000 0000 0080
00000120: dad0 ec3d dbc3 ec3d 5202 00be f5e1 133e
00000130: 3e0f efbd 02de 2b3e 0000 0080 3582 d13d
00000140: 0000 0000 0000 0000 0000 0000 2c52 f8bd
00000150: 0000 0000 ea66 073e 0000 0080 0000 0000
00000160: a081 d8bd cfe5 d73d 0000 0080 0c39 aebd
00000170: 0000 0000 21cd 03be f55a 27be 0000 0080
00000180: 0000 0080 0000 0080 00cc cf3d 0000 0080
00000190: 3c9c 32be 0000 0000 0000 0000 2681 9a3d
000001a0: 674e b4bd 35c1 f23d 0000 0000 f69d ad3d
000001b0: bac9 04be 480c 08be 4e38 2ebe 0000 0080
000001c0: 0000 0000 0000 0080 0000 0080 26a8 b23d
000001d0: 0000 0080 1b4e 06be bef8 003e 14f5 c5bd
000001e0: 0000 0080 423b a83d 0000 0080 f26d f93d
000001f0: 0000 0080 0000 0000 fe89 053e 6df8 cbbd
00000200: 3076 0e3e 0000 0080 1a78 b8bd e52b 13be
00000210: 0000 0080 0000 0080 772c a6bd a272 c7bd
00000220: 609f d7bd 0eba 28be 0000 0000 0000 0000
00000230: 0000 0080 b9e1 7f3d 0000 0080 70c8 b2bd
00000240: 4016 bb3d 77d7 f7bd 0d8a 093e 1059 0e3e
00000250: 0000 0080 358f e73d 9781 20be e3bf d43d
00000260: 0000 0080 22de d8bd 0000 0000 1237 e33d
00000270: fadb 053e 0000 0080 0594 303e 44a5 d8bd
00000280: 0000 0000 0000 0080 67dc fcbd 0000 0000
00000290: b067 13be 2253 19be fb4d dd3d 4dde cbbd
000002a0: 1e1c 043e e4b1 08be aabc 183e 0000 0080
000002b0: 0000 0080 43f9 da3d 90b1 fbbd 0000 0000
000002c0: 0000 0000 0000 0000 1941 0a3e 0000 0080
000002d0: 6e51 e23d 0000 0000 91b3 08be c95c 9cbd
000002e0: f63d cdbd 0000 0000 30df 9bbd ca21 04be
000002f0: 0000 0000 0000 0080 0000 0000 0715 07be
00000300: 2ef7 03be 972a f5bd 2f2c d4bd 0000 0080
00000310: fcfe cbbd 0000 0000 0000 0080 52e9 cd3d
00000320: 06de b23d fab1 11be 8701 16be ceb8 22be
00000330: 0000 0000 0000 0080 0000 0000 0000 0080
00000340: 919d 9a3d 733e 123e 0000 0000 3d07 05be
00000350: 0742 813d f4e1 e43d 0d66 a93d 0000 0000
00000360: 00af f3bd 1d70 113e 0000 0000 1439 263e
00000370: 0000 0000 92df c53d 0000 0080 0000 0080
00000380: 0000 0000 0000 0080 a97b 10be b46d c13d
00000390: 0000 0000 16e3 2ebe 0000 0080 9617 ee3d
000003a0: 0000 0080 0000 0080 0000 0080 0000 0080
000003b0: 0f4e e93d 5753 cc3d 0000 0080 0000 0080
000003c0: 0000 0080 228a 05be 0000 0080 3506 31be
000003d0: d969 9bbd 0000 0080 2ffd e63d 8eff e93d
000003e0: cdf7 0bbe 0000 0000 a990 c13d 489f b73d
000003f0: 0000 0080 0000 0000 b44c 0cbe 0000 0000

sequential_17/conv2d_77/Conv2D f4 [16, 3, 3, 1]
-0.109230585 0.0 -0.18496703 0.15613525 0.0 0.17520489 0.16321951 0.0
-0.0 0.11635264 0.0 0.0 -0.1756218 0.1267463 0.0 0.0
-0.10223229 0.0 -0.0 0.11281138 -0.0 0.1945893 -0.0 -0.0
0.14248879 -0.0 0.18167835 -0.0 0.17157175 -0.0 0.14134239 -0.0
0.11168078 -0.0 -0.0 0.11532981 0.11329354 -0.09509799 0.0 0.0
0.17214325 0.17924462 0.0 -0.167461 -0.17047966 0.19778566 -0.14489079 0.0
-0.0 -0.104595505 0.15360188 0.19566947 -0.0 0.1819562 0.0 0.0
0.0 -0.10966349 0.0 0.12049967 -0.16593413 0.0 0.17874871 -0.09378766
-0.15140009 0.0 0.0 0.22426216 -0.12551966 0.21099095 0.0 -0.16581105
0.0 -0.1299516 -0.1230581 -0.11261746 0.10771087 -0.16051021 -0.07673334 -0.0
-0.0 0.2036187 0.0 -0.0 0.0 0.0 -0.18365207 0.10973234
0.1076182 -0.0 0.16443543 -0.14640646 0.0 0.15103273 0.0 -0.18411908
0.0 0.0 -0.0 -0.17964756 0.0 0.19808874 -0.0 0.167996
0.17262939 -0.0 -0.109711654 0.17631447 -0.0 -0.0 0.0 -0.0
-0.0 -0.0 -0.0 -0.12236123 -0.0 0.0 0.0 -0.17967609
-0.0 -0.0 0.16416015 -0.0 0.18691589 0.0 0.0 0.11955775
-0.15898062 -0.0 0.16183445 -0.0 -0.13516866 -0.0 -0.0 0.0
0.0 -0.08235575 0.0 0.22522625 0.0 -0.17422467 -0.1612687 0.1585498
00000000: 49b4 dfbd 0000 0000 ff67 3dbe ebe1 1f3e
00000010: 0000 0000 e968 333e 0423 273e 0000 0000
00000020: 0000 0080 4b4a ee3d 0000 0000 0000 0000
00000030: 33d6 33be c8c9 013e 0000 0000 0000 0000
00000040: 2a5f d1bd 0000 0000 0000 0080 a709 e73d
00000050: 0000 0080 6b42 473e 0000 0080 0000 0080
00000060: 95e8 113e 0000 0080 e409 3a3e 0000 0080
00000070: 81b0 2f3e 0000 0080 0fbc 103e 0000 0080
00000080: e5b8 e43d 0000 0080 0000 0080 0932 ec3d
00000090: 7206 e83d bcc2 c2bd 0000 0000 0000 0000
000000a0: 5246 303e e78b 373e 0000 0000 e57a 2bbe
000000b0: 3892 2ebe 5388 4a3e 405e 14be 0000 0000
000000c0: 0000 0080 2b36 d6bd d049 1d3e 945d 483e
000000d0: 0000 0080 ba52 3a3e 0000 0000 0000 0000
000000e0: 0000 0000 4097 e0bd 0000 0000 88c8 f63d
000000f0: a3ea 29be 0000 0000 e709 373e bf13 c0bd
00000100: a008 1bbe 0000 0000 0000 0000 fba4 653e
00000110: 3a88 00be 030e 583e 0000 0000 5fca 29be
00000120: 0000 0000 0812 05be e305 fcbd fca3 e6bd
00000130: 8497 dc3d ca5c 24be 5f26 9dbd 0000 0080
00000140: 0000 0080 6c81 503e 0000 0000 0000 0080
00000150: 0000 0000 0000 0000 4a0f 3cbe 59bb e03d
00000160: ee66 dc3d 0000 0080 c361 283e 93eb 15be
00000170: 0000 0000 53a8 1a3e 0000 0000 b689 3cbe
00000180: 0000 0000 0000 0000 0000 0080 88f5 37be
00000190: 0000 0000 c6d7 4a3e 0000 0080 2507 2c3e
000001a0: c2c5 303e 0000 0080 81b0 e0bd c88b 343e
000001b0: 0000 0080 0000 0080 0000 0000 0000 0080
000001c0: 0000 0080 0000 0080 0000 0080 8698 fabd
000001d0: 0000 0080 0000 0000 0000 0000 02fd 37be
000001e0: 0000 0080 0000 0080 9919 283e 0000 0080
000001f0: e166 3f3e 0000 0000 0000 0000 b2da f43d
00000200: d1cb 22be 0000 0080 eeb7 253e 0000 0080
00000210: a769 0abe 0000 0080 0000 0080 0000 0000
00000220: 0000 0000 22aa a8bd 0000 0000 b6a1 663e
00000230: 0000 0000 f467 32be 9f23 25be e15a 223e

sequential_17/conv2d_78/Conv2D i1 [32, 3, 3, 16] scale=0.0016664331 zero_point=0
0.06499089 0.0 -0.12331605 0.08332165 0.0 0.0 0.0 0.0
0.14331324 0.068323754 0.0 0.12331605 -0.03332866 0.08998738 0.10165241 0.14997898
-0.09998599 0.0 0.0 0.0 -0.11498388 0.11165102 0.13831395 -0.068323754
0.0 0.06499089 0.0 0.09665312 0.073323056 0.09165382 0.09332025 0.10331885
-0.07498949 -0.10165241 -0.09332025 0.07832235 0.0 0.08332165 -0.07832235 0.0
0.0 0.11665031 0.0 0.0 0.0 0.08165522 0.0 0.0
-0.11998318 0.15997757 0.07498949 -0.106651716 -0.07498949 -0.088320956 0.0 0.0
0.08498809 0.08498809 0.0 0.0 -0.04832656 -0.11831675 -0.068323754 -0.09332025
-0.109984584 0.0 0.0 0.0 0.124982476 -0.088320956 0.0 0.046660125
-0.13831395 -0.09998599 -0.15997757 0.0 0.0 0.0 0.0 0.14331324
-0.09998599 -0.038327962 0.0 0.0 0.08998738 0.0 -0.09332025 0.029995795
-0.13164821 0.0 0.0 0.07498949 0.0 0.0 0.10165241 0.0
0.0 0.1816412 0.073323056 0.0 -0.10331885 0.0 0.124982476 0.211637
-0.06999019 -0.07165662 0.0 0.0 -0.07165662 0.0 0.15997757 0.113317445
0.0 -0.034995094 -0.13164821 -0.08498809 -0.056658722 -0.09831955 0.0 -0.023330063
0.11165102 0.0 0.088320956 0.08498809 0.0 0.0 0.12998179 0.0
-0.13331464 0.1716426 0.049992993 0.0 0.14331324 0.09165382 0.0 0.0
0.0 0.0 -0.14164682 0.07498949 0.09165382 -0.14331324 0.0 0.12331605
-0.073323056 -0.08665452 0.08665452 -0.068323754 0.0 0.0 0.0 0.0
0.0 -0.106651716 0.0 -0.08665452 0.0 0.0 0.0 0.0
-0.09831955 0.0 0.08498809 -0.088320956 -0.07832235 0.0 0.0 0.0
0.10165241 -0.088320956 0.09332025 0.0 0.0 0.0 0.0 0.09332025
0.05999159 0.0 0.0 0.113317445 0.09831955 0.10331885 0.09665312 0.0
0.08998738 0.0 0.10498528 0.06332446 0.08498809 0.0 0.0 0.1516454
0.073323056 0.068323754 0.0 0.0 0.073323056 -0.10498528 0.0 -0.079988785
0.10831815 0.0 -0.07832235 0.0 -0.08998738 0.0 0.13164821 0.0
0.0 -0.06665732 0.07165662 -0.11998318 0.08165522 0.088320956 -0.07832235 0.14497967
0.09831955 0.0 0.0 0.0 -0.09665312 0.0 0.11165102 0.0
0.0 -0.10831815 -0.068323754 0.076655924 0.0 -0.08165522 0.07832235 0.076655924
-0.08165522 0.0 -0.08165522 0.0 0.0 0.068323754 0.0 0.094986685
0.0 0.0 0.09831955 -0.09332025 0.113317445 0.0 -0.076655924 -0.10331885
-0.10831815 -0.11165102 0.10331885 -0.09665312 -0.11165102 0.0 0.0 0.088320956
00000000: 2700 b632 0000 0000 5629 004a ec36 3d5a
00000010: c400 0000 bb43 53d7 0027 003a 2c37 383e
00000020: d3c3 c82f 0032 d100 0046 0000 0031 0000
00000030: b860 2dc0 d3cb 0000 3333 0000 e3b9 d7c8
00000040: be00 0000 4bcb 001c adc4 a000 0000 0056
00000050: c4e9 0000 3600 c812 b100 002d 0000 3d00
00000060: 006d 2c00 c200 4b7f d6d5 0000 d500 6044
00000070: 00eb b1cd dec5 00f2 4300 3533 0000 4e00
00000080: b067 1e00 5637 0000 0000 ab2d 37aa 004a
00000090: d4cc 34d7 0000 0000 00c0 00cc 0000 0000
000000a0: c500 33cb d100 0000 3dcb 3800 0000 0038
000000b0: 2400 0044 3b3e 3a00 3600 3f26 3300 005b
000000c0: 2c29 0000 2cc1 00d0 4100 d100 ca00 4f00
000000d0: 00d8 2bb8 3135 d157 3b00 0000 c600 4300
000000e0: 00bf d72e 00cf 2f2e cf00 cf00 0029 0039
000000f0: 0000 3bc8 4400 d2c2 bfbd 3ec6 bd00 0035

sequential_17/conv2d_79/Conv2D i1 [64, 3, 3, 32] scale=0.0011028768 zero_point=0
0.0 0.0 0.05955535 -0.07830425 0.063966855 0.08933303 0.061761104 0.0
-0.06948124 0.09374453 -0.03529206 0.0 0.0 0.0 0.0 -0.044115074
0.06286398 0.060658228 -0.03529206 -0.051835213 0.0 0.0 0.09264165 0.0
0.0 0.0 -0.044115074 0.0 0.0 0.0 0.0 -0.065069735
-0.058452472 0.05514384 0.0 0.0 0.07830425 0.057349596 -0.046320826 0.0
0.0 0.0 -0.07058412 0.0 -0.08712727 -0.081612885 0.07389275 0.09484741
-0.066172615 0.0 0.0 -0.071687 0.04521795 0.0 0.0 -0.058452472
-0.04852658 0.0 0.063966855 -0.041909322 0.07058412 0.0 0.0 0.0
0.0 0.0 0.05514384 0.0 0.03860069 0.07278987 0.023160413 0.08712727
-0.07940713 0.0 -0.03749781 -0.058452472 -0.10697906 0.0 0.044115074 -0.043012198
0.0 0.06948124 -0.06948124 0.07058412 0.0 0.083818644 0.0904359 0.06286398
-0.03749781 0.0 0.0 0.081612885 -0.061761104 0.0 0.0 0.0760985
0.0 0.081612885 0.0 -0.043012198 -0.063966855 0.0 0.07278987 0.0
-0.083818644 0.0 0.0 0.0 -0.057349596 0.0 -0.05955535 0.0
-0.07499562 0.05514384 0.0 0.0 -0.07058412 0.0 0.07720138 0.0
-0.06948124 0.0 0.047423705 0.0 -0.05293809 -0.036394935 0.0 0.0
0.0 0.0 0.0 0.0 0.0 0.0 0.0 -0.050732337
0.0 0.0 0.0 0.0 0.0 0.049629457 0.0 0.0
0.0 0.0 0.0 0.0 -0.057349596 0.0 0.0760985 0.0
0.0 0.0 0.05624672 0.0760985 0.09484741 -0.09374453 0.0 0.0
0.0 -0.07058412 -0.07499562 0.0 0.0 0.071687 0.0 0.049629457
0.0 0.063966855 0.0 -0.07940713 -0.09484741 -0.0760985 0.057349596 0.066172615
0.0 0.0 0.0 0.0 0.0 0.057349596 -0.08712727 0.0
0.0 0.0 0.0 -0.049629457 -0.102567546 0.0 0.047423705 0.0
0.06286398 0.0 0.0 -0.060658228 0.08823015 0.0 0.083818644 0.0
0.054040965 0.06837837 0.0 0.05293809 0.0 0.0 -0.020954661 0.08823015
-0.05955535 0.0 0.0 0.08933303 -0.082715765 0.0 0.05293809 0.07499562
0.0 0.0 0.0 0.0 -0.046320826 -0.043012198 -0.033086307 0.0
0.09374453 0.0 0.06286398 -0.081612885 0.0 0.0 0.099258915 0.07499562
0.06837837 0.0 0.0 -0.058452472 -0.047423705 0.05293809 0.0 0.0
0.0 0.081612885 0.0 0.040806442 0.0 0.0 0.054040965 0.0
0.09595028 0.0 0.0 0.0 -0.036394935 0.0 0.071687 -0.082715765
00000000: 0000 36b9 3a51 3800 c155 e000 0000 00d8
00000010: 3937 e0d1 0000 5400 0000 d800 0000 00c5
00000020: cb32 0000 4734 d600 0000 c000 b1b6 4356
00000030: c400 00bf 2900 00cb d400 3ada 4000 0000
00000040: 0000 3200 2342 154f b800 decb 9f00 28d9
00000050: 003f c140 004c 5239 de00 004a c800 0045
00000060: 004a 00d9 c600 4200 b400 0000 cc00 ca00
00000070: bc32 0000 c000 4600 c100 2b00 d0df 0000
00000080: 0000 0000 0000 00d2 0000 0000 002d 0000
00000090: 0000 0000 cc00 4500 0000 3345 56ab 0000
000000a0: 00c0 bc00 0041 002d 003a 00b8 aabb 343c
000000b0: 0000 0000 0034 b100 0000 00d3 a300 2b00
000000c0: 3900 00c9 5000 4c00 313e 0030 0000 ed50
000000d0: ca00 0051 b500 3044 0000 0000 d6d9 e200
000000e0: 5500 39b6 0000 5a44 3e00 00cb d530 0000
000000f0: 004a 0025 0000 3100 5700 0000 df00 41b5

sequential_17/conv2d_80/Conv2D i1 [128, 3, 3, 64] scale=0.00080942066 zero_point=0
-0.040471032 0.0 0.03399567 0.043708716 0.039661612 0.03399567 0.0 0.057468865
0.0 0.0 -0.045327555 0.0 -0.045327555 0.042899296 0.0 -0.04613698
-0.05908771 0.0 0.0 0.0 0.0 -0.042899296 0.0 -0.045327555
0.0 0.050993502 0.050184082 -0.042899296 0.055850025 0.0 0.0 0.0
0.0 -0.03642393 0.0 0.0 -0.041280452 0.04775582 0.0 0.0
0.0 0.0 0.0 -0.03642393 0.032376826 0.0 0.0 -0.05827829
-0.045327555 0.0 -0.05827829 0.0 -0.044518135 0.0 0.0 0.044518135
0.0 0.0 0.0 0.057468865 0.0 0.050993502 -0.04937466 0.04775582
0.0 0.0 -0.06313481 0.03480509 0.03399567 -0.06475365 -0.06637249 0.038852192
0.054231185 0.0 -0.033186246 0.0 0.030757984 -0.031567406 0.0 0.0
-0.032376826 -0.04775582 0.0 0.0 0.038042773 -0.038852192 0.039661612 -0.029948564
0.0 0.0 0.0 0.043708716 -0.051802922 0.0 -0.032376826 0.0
-0.06637249 0.0 0.03561451 -0.039661612 0.0 0.0 -0.050184082 0.0
-0.068800755 -0.031567406 0.0 0.040471032 0.0 0.045327555 0.043708716 0.03399567
-0.068800755 -0.054231185 -0.04613698 0.029948564 -0.041280452 0.0 0.045327555 -0.032376826
-0.045327555 0.0 -0.038852192 -0.062325392 -0.04775582 0.0 0.0 0.0
0.0 0.0 -0.052612342 -0.05989713 -0.065563075 -0.03723335 -0.03723335 0.029948564
-0.03642393 -0.041280452 -0.062325392 0.0 -0.040471032 -0.05342176 -0.039661612 -0.054231185
0.03723335 0.032376826 -0.050184082 -0.0469464 -0.04775582 0.0 0.0 0.0
-0.050993502 0.0 -0.033186246 -0.06475365 0.040471032 0.0 0.0 0.038852192
0.0 -0.044518135 -0.039661612 0.0469464 0.0 0.0 0.0 0.0
-0.06475365 0.0 0.0 -0.057468865 0.0 0.0 0.03561451 0.03561451
0.040471032 0.033186246 -0.055040605 -0.043708716 0.0 0.0 0.0 0.0
0.0 -0.07365728 0.040471032 0.0 0.033186246 0.0 0.0 0.0
0.0 0.042899296 0.0 0.04856524 0.06475365 0.0 0.06070655 -0.038852192
0.0 0.0 -0.022663778 0.050184082 -0.025092041 -0.039661612 0.0 -0.045327555
0.0 0.050184082 0.0 -0.027520303 0.0 0.07122902 0.0 0.0
0.0 0.0 -0.031567406 -0.04856524 0.0 0.0 0.039661612 0.0
0.0 -0.03399567 0.040471032 0.0 0.04613698 0.038852192 0.0 0.0
0.042899296 -0.044518135 0.0 -0.055040605 0.0 -0.056659445 -0.04937466 -0.033186246
0.0 -0.050993502 0.04856524 0.0 0.0 0.07365728 0.03642393 0.0
-0.03723335 -0.04775582 0.0 -0.044518135 0.0 -0.045327555 -0.045327555 0.0
00000000: ce00 2a36 312a 0047 0000 c800 c835 00c7
00000010: b700 0000 00cb 00c8 003f 3ecb 4500 0000
00000020: 00d3 0000 cd3b 0000 0000 00d3 2800 00b8
00000030: c800 b800 c900 0037 0000 0047 003f c33b
00000040: 0000 b22b 2ab0 ae30 4300 d700 26d9 0000
00000050: d8c5 0000 2fd0 31db 0000 0036 c000 d800
00000060: ae00 2ccf 0000 c200 abd9 0032 0038 362a
00000070: abbd c725 cd00 38d8 c800 d0b3 c500 0000
00000080: 0000 bfb6 afd2 d225 d3cd b300 cebe cfbd
00000090: 2e28 c2c6 c500 0000 c100 d7b0 3200 0030
000000a0: 00c9 cf3a 0000 0000 b000 00b9 0000 2c2c
000000b0: 3229 bcca 0000 0000 00a5 3200 2900 0000
000000c0: 0035 003c 5000 4bd0 0000 e43e e1cf 00c8
000000d0: 003e 00de 0058 0000 0000 d9c4 0000 3100
000000e0: 00d6 3200 3930 0000 35c9 00bc 00ba c3d7
000000f0: 00c1 3c00 005b 2d00 d2c5 00c9 00c8 c800
